model.pth (torch, 103784 bytes, 7 tensors)

fc1.weight f4 [64, 4]
-1.2180239 0.23648159 0.020254698 0.42760345 0.74674416 -0.41247693 0.46166068 0.050622545
0.7402086 -0.12965482 0.54637843 0.068781294 1.0390527 0.053802554 0.86488473 -0.07025551
-0.9823536 0.32264042 -0.65214753 0.32391775 0.9951073 -0.067499824 0.84624296 -0.13560717
0.59867674 0.32016107 0.70300615 0.6774494 0.6838394 -0.122166246 0.6444213 -0.31563306
1.087017 0.0017579851 0.88645774 -0.11178742 -1.3439715 -0.23917118 0.18611874 0.52259004
0.76685584 -0.022151854 0.78901273 -0.15766504 0.8271428 0.01277716 0.7628402 -0.19985113
1.078297 -0.45824236 0.6348005 0.19031715 -0.28609475 0.5748794 -1.850766 0.46070337
0.7554897 -0.24788466 0.5418058 0.087575436 0.8820558 -0.10616574 0.7484356 -0.16280799
0.79273087 -0.29589158 0.60054505 -0.08573163 0.03545041 0.36774284 -2.2894702 0.31058428
0.2785856 0.4123215 -1.465502 0.3626167 0.002781279 0.6973558 -1.4144746 0.50347596
0.87752205 0.01887882 0.8553127 -0.07650679 0.77187854 -0.15882292 0.6062129 -0.08612284
-1.0353681 0.30501586 -0.9582454 0.3909663 1.0319903 -0.028667474 0.8785012 -0.12763163
0.6917172 -0.09501382 0.62215996 -0.15675095 0.8832137 -0.1990325 0.7074599 0.007220311
0.54764557 0.3449155 -1.3282552 0.8129041 -1.3202012 0.17038488 -0.1357566 0.1551319
-0.9613354 0.27013695 -0.49553633 0.35709247 -1.1391382 -0.12656637 0.10653845 0.4427373
-0.80694205 -0.1490043 2.1138775 0.23798366 0.64387214 0.0049948287 0.5692272 0.046142846
0.7919485 -0.15927254 0.6435222 -0.20594545 -0.17689909 0.80000156 -1.6571196 0.27548814
-0.23693109 -0.37822482 1.5381751 -0.09780348 -1.3715726 -0.14168411 0.4401317 0.52386016
0.48601794 -0.121965796 0.4833751 -0.32442138 0.123173185 0.57092226 -1.4445333 0.63884157
-0.57859 0.03454871 -1.1126044 0.5714807 -1.307539 0.21851481 0.23368923 0.09914618
0.7806944 -0.0720938 0.67817545 -0.018268256 -0.25033894 0.3224342 0.3334374 1.174042
-0.7940703 -0.3589089 -0.046872664 1.0135217 0.88634086 -0.08857315 0.7212682 -0.14024536
1.0030074 0.009977319 0.83866394 -0.10501483 -0.56223977 -0.29128477 1.6155175 0.010031128
-1.0894191 -0.12495101 0.25138125 0.58355266 -1.3301941 0.2883842 0.046601526 0.30755177
0.83037364 0.2796317 -0.8295505 1.2906256 -1.1185324 0.082574144 0.5923703 0.32040554
0.744966 -0.06879616 0.6917246 -0.092528164 0.6422302 0.3538396 -0.9129495 0.96855336
1.014052 0.034611754 0.8511313 -0.13843668 0.27564055 0.25433096 0.7071897 0.27879474
0.91172516 -0.06920227 0.78629845 -0.20082618 0.86759716 -0.061357882 0.72022724 -0.06124958
-1.2351007 0.22312486 0.3058775 0.44176823 0.8260747 -0.14813206 0.7746194 -0.324681
0.78931266 -0.016872054 0.72805655 -0.035308465 0.8898868 0.056424778 0.8159138 0.055146877
-0.99455667 0.45383796 -0.63655 0.36982754 0.88769764 -0.20560713 0.7060735 -0.020103298
-0.14537647 0.1682387 1.1092108 0.024557728 -0.9020799 0.13459021 -0.6132048 0.47958288
00000000: 35e8 9bbf 3b28 723e 2eed a53c d7ee da3e
00000010: a02a 3f3f 2d30 d3be ca5e ec3e 9659 4f3d
00000020: 507e 3d3f 3cc4 04be 75df 0b3f 35dd 8c3d
00000030: aeff 843f 1160 5c3d 1669 5d3f 1fe2 8fbd
00000040: 877b 7bbf 2031 a53e 24f3 26bf 8cd8 a53e
00000050: 5abf 7e3f 593d 8abd 61a3 583f 9bdc 0abe
00000060: e142 193f 27ec a33e 36f8 333f 536d 2d3f
00000070: 1910 2f3f 4c32 fabd cbf8 243f a89a a1be
00000080: 6023 8b3f 316c e63a e5ee 623f cef0 e4bd
00000090: 4207 acbf 4ae9 74be e995 3e3e 76c8 053f
000000a0: aa50 443f ce77 b5bc bdfc 493f f272 21be
000000b0: a1bf 533f 4b57 513c 7f49 433f c6a5 4cbe
000000c0: a305 8a3f be9e eabe 4982 223f 80e2 423e
000000d0: 037b 92be 4c2b 133f e6e5 ecbf 50e1 eb3e
000000e0: c667 413f 7ad5 7dbe c9b3 0a3f c05a b33d
000000f0: 69ce 613f 6c6d d9bd 7a99 3f3f 23b7 26be
00000100: 69f0 4a3f 1a7f 97be 52bd 193f 1194 afbd
00000110: 7334 113d ca48 bc3e ae86 12c0 e704 9f3e
00000120: c6a2 8e3e ce1b d33e 9295 bbbf e5a8 b93e
00000130: 1e46 363b e985 323f 810d b5bf cde3 003f
00000140: 49a5 603f c1a7 9a3c c6f5 5a3f 98af 9cbd
00000150: d599 453f 7aa2 22be c530 1b3f 2c61 b0bd
00000160: f186 84bf 0a2b 9c3e 924f 75bf bc2c c83e
00000170: 4218 843f 0dd8 eabc 74e5 603f deb1 02be
00000180: 6114 313f 9b96 c2bd e045 1f3f 5283 20be
00000190: 4b1a 623f 2dcf 4bbe 181c 353f 5c98 ec3b
000001a0: 8032 0c3f c498 b03e 4404 aabf 7c1a 503f
000001b0: 5afc a8bf 6079 2e3e c703 0bbe e6da 1e3e
000001c0: 141a 76bf 644f 8a3e f0b6 fdbe d3d4 b63e
000001d0: 48cf 91bf 9d9a 01be d530 da3d 77ae e23e
000001e0: c193 4ebf 9594 18be c549 0740 fdb1 733e
000001f0: ced4 243f a9ab a33b e0b8 113f 4800 3d3d
00000200: 23bd 4a3f 5718 23be dfbd 243f 5de3 52be
00000210: 0925 35be e7cc 4c3f 7f1c d4bf c80c 8d3e
00000220: 109e 72be afa6 c1be ece2 c43f 314d c8bd
00000230: b18f afbf a415 11be f158 e13e b31b 063f
00000240: 58d7 f83e 34c9 f9bd f17c f73e 8f1a a6be
00000250: 3942 fc3d f627 123f 78e6 b8bf 1f8b 233f
00000260: 791e 14bf f382 0d3d d269 8ebf 8f4c 123f
00000270: 705d a7bf 59c2 5f3e 3b4c 6f3e 270d cb3d
00000280: 97db 473f eaa5 93bd e89c 2d3f 4fa7 95bc
00000290: 6d2c 80be 1816 a53e 4fb8 aa3e 0247 963f
000002a0: 3148 4bbf e8c2 b7be 8dfd 3fbd 14bb 813f
000002b0: 3ce7 623f d765 b5bd 08a5 383f 7b9c 0fbe
000002c0: 8c62 803f e977 233c aeb2 563f 0412 d7bd
000002d0: f2ee 0fbf 4723 95be 47c9 ce3f 9a59 243c
000002e0: 1672 8bbf 51e6 ffbd 0bb5 803e b563 153f
000002f0: cd43 aabf 18a7 933e 3ee1 3e3d 6d77 9d3e
00000300: 5e93 543f e32b 8f3e 6c5d 54bf 3833 a53f
00000310: 122c 8fbf a21c a93d 94a5 173f 320c a43e
00000320: 17b6 3e3f 00e5 8cbd dd14 313f 687f bdbd
00000330: 3369 243f 772a b53e 0fb7 69bf 1df3 773f
00000340: 75cc 813f 0ec5 0d3d bee3 593f 58c2 0dbe
00000350: c220 8d3e ab37 823e 620a 353f 2fbe 8e3e
00000360: d266 693f ebb9 8dbd db4a 493f 61a5 4dbe
00000370: d91a 5e3f 6752 7bbd d060 383f d7e0 7abd
00000380: c817 9ebf d87a 643e fa9b 9c3e 722f e23e
00000390: a279 533f eeaf 17be 754d 463f 973c a6be
000003a0: 6510 4a3f 4337 8abc ea61 3a3f 9c9f 10bd
000003b0: 9fcf 633f ab1d 673d badf 503f b1e1 613d
000003c0: 449b 7ebf 735d e83e f1f4 22bf 095a bd3e
000003d0: 2740 633f ad8a 52be 3cc1 343f acaf a4bc
000003e0: 92dd 14be c446 2c3e 9ffa 8d3f 4a2d c93c
000003f0: b5ee 66bf 04d2 093e fdfa 1cbf e38b f53e

fc1.bias f4 [64]
0.280741 -1.0087129 -0.93532646 -1.2142638 0.2978615 -1.1744376 -1.7672167 -1.5582311
-1.2953163 -0.35188782 -1.4731423 -1.0863128 -0.539145 -0.68989426 -1.0051036 -1.2829974
-1.0016245 -2.1232147 -1.1010705 0.30038282 -1.4193314 -1.0565879 1.2436458 -1.1812494
-1.4473419 -1.0437074 -0.42915386 0.008058288 -0.06387459 -0.2640341 -2.1312168 -1.1997443
-1.2503563 -0.52847403 -1.9877653 -0.4287137 -1.9014741 0.27090007 0.5562714 -0.5308513
-1.3317252 0.5651551 0.17810385 -0.770658 -1.0482585 -2.1497626 -0.13337883 -0.019319106
0.30880478 -0.7265159 -0.9998817 0.00930063 -1.208137 -2.2606885 -1.3634161 -1.1690863
0.20413649 -1.938064 -1.2656039 -0.7271036 0.8931273 -0.81351376 -0.815139 0.48648226
00000000: 49bd 8f3e 811d 81bf 8e71 6fbf ff6c 9bbf
00000010: 4d81 983e f953 96bf 2834 e2bf 1e74 c7bf
00000020: edcc a5bf a42a b4be ed8f bcbf 4c0c 8bbf
00000030: 6805 0abf e99c 30bf 3ca7 80bf 4239 a4bf
00000040: 3b35 80bf c0e2 07c0 e1ef 8cbf c7cb 993e
00000050: a7ac b5bf 463e 87bf c92f 9f3f 2e33 97bf
00000060: 8042 b9bf 3498 85bf 0eba dbbe e906 043c
00000070: aed0 82bd 7a2f 87be db65 08c0 3991 99bf
00000080: ad0b a0bf 134a 07bf 186f febf 5d80 dbbe
00000090: 8163 f3bf 6ab3 8a3e cd67 0e3f dfe5 07bf
000000a0: f975 aabf 01ae 103f db60 363e d849 45bf
000000b0: 562d 86bf b695 09c0 7694 08be 1a43 9ebc
000000c0: a91b 9e3e f2fc 39bf 3ff8 7fbf ab61 183c
000000d0: 3ca4 9abf 1faf 10c0 6b84 aebf 9fa4 95bf
000000e0: 2809 513e 7b12 f8bf 4fff a1bf 7623 3abf
000000f0: fea3 643f 7042 50bf f3ac 50bf 3414 f93e

fc2.weight f4 [128, 64]
-1.086861 -0.47624022 -0.3978215 -0.22860391 -0.95821804 -0.3838434 -0.53850883 -0.36953545
-0.101083115 -0.79224104 -0.37205824 -0.2862097 -0.43688023 -1.1034809 -0.3813244 -0.25555784
-0.40462476 -1.1708829 -0.4608715 -0.8164538 -0.23351753 -0.36333197 -1.0797634 -0.18014583
-0.3728945 -0.39664504 -0.62811196 -0.55925363 -0.65460527 -0.49957705 -0.48418316 -0.42442647
-0.3415307 -0.95295024 -0.22937211 -0.8655081 -0.4284264 -0.94913244 -1.0123192 -0.6673008
-0.29540056 -0.9913888 -0.84875035 -0.43431902 -0.3169653 -0.37129015 -0.6735014 -1.0788581
-0.9718493 -0.7851641 -0.3827728 -0.7478792 -0.26795745 -0.59706026 -0.24315366 -0.40845323
-1.0139993 -0.27146068 -0.48138478 -0.35377556 -1.0114177 -0.37441605 -0.6797748 -1.0309933
-0.8448792 -0.45976436 -0.60344356 -0.3673179 -0.7126276 -0.4306254 -0.5203854 -0.320216
-0.28370357 -0.6438407 -0.53405315 -0.35458535 -0.3607327 -0.9881747 -0.36875233 -0.2532732
-0.46229863 -1.2538673 -0.5838767 -0.80879366 -0.32255512 -0.40781137 -0.8140352 -0.36749953
-0.2839899 -0.4649079 -0.7524736 -0.48055336 -0.73129433 -0.65380085 -0.71503234 -0.4808648
-0.3025586 -0.7400543 -0.41341227 -0.92615104 -0.35047692 -0.71852857 -0.66354567 -0.44119745
-0.46450412 -0.8673186 -0.69322175 -0.34104887 -0.31284916 -0.37076417 -0.67564005 -0.76290065
-0.90589494 -0.61903065 -0.44175518 -0.8545383 -0.4183436 -0.7373899 -0.30282634 -0.4585284
-0.95808643 -0.25375658 -0.5282618 -0.41182196 -0.87227947 -0.35269502 -0.6485942 -0.63352454
-1.0779593 -0.33969563 -0.31889927 -0.19032356 -0.9820459 -0.3595684 -0.5438379 -0.31902215
-0.23204355 -0.8131572 -0.32899034 -0.3110386 -0.5009533 -1.1629161 -0.3783993 -0.28570372
-0.31203082 -1.1787658 -0.6145858 -0.95354044 -0.34454453 -0.27974832 -1.1393211 -0.2678868
-0.2953805 -0.2761789 -0.6476242 -0.4764076 -0.6955424 -0.6702504 -0.6071823 -0.46949345
-0.41234034 -0.9930612 -0.3918294 -0.9664051 -0.42762762 -1.0186714 -0.98582023 -0.6368687
-0.39098892 -0.88948303 -0.8886662 -0.38205647 -0.23637567 -0.3492397 -0.7602057 -1.1651324
-0.82782304 -0.6844319 -0.3477511 -0.72330976 -0.33050355 -0.5466641 -0.21229127 -0.30504167
-1.0465895 -0.32389396 -0.38754976 -0.5209854 -1.0310346 -0.32601517 -0.5040399 -1.0685505
-1.0738081 -0.41709736 -0.34671402 -0.3029985 -0.99476135 -0.30268478 -0.61449355 -0.31771645
-0.0929249 -0.86665356 -0.24800257 -0.40567112 -0.34662017 -1.2426935 -0.4647592 -0.31247714
-0.40815464 -1.2255465 -0.6660166 -0.88005936 -0.3681759 -0.46020716 -1.0646998 -0.19079317
-0.4326748 -0.41630813 -0.76581395 -0.41825995 -0.69760066 -0.7513707 -0.42185095 -0.37475798
-0.19458914 -0.8999705 -0.23844095 -0.98147863 -0.4632941 -0.94652116 -0.9205411 -0.65437835
-0.4152254 -1.0538739 -0.7303661 -0.40774015 -0.24755178 -0.3322219 -0.846645 -1.1399393
-0.84147996 -0.7294434 -0.34384203 -0.8990137 -0.29585588 -0.6561976 -0.14687724 -0.36936012
-1.1596287 -0.21437272 -0.30177832 -0.4758769 -1.160096 -0.29686514 -0.57644963 -1.0859296
00000000: 431e 8bbf c2d5 f3be 42af cbbe 2517 6abe
00000010: c74d 75bf 1f87 c4be b7db 09bf c033 bdbe
00000020: aa04 cfbd 4fd0 4abf 6b7e bebe 148a 92be
00000030: c4ae dfbe dd3e 8dbf f43c c3be 7ad8 82be
00000040: fa2a cfbe 7edf 95bf 59f7 ebbe 1e03 51bf
00000050: 381f 6fbe a606 babe b035 8abf 2678 38be
00000060: 07ec bebe 0f15 cbbe f2cb 20bf 3f2b 0fbf
00000070: 3694 27bf 90c8 ffbe dbe6 f7be 6d4e d9be
00000080: 1ddd aebe 8cf4 73bf 86e0 6abe f091 5dbf
00000090: b55a dbbe 58fa 72bf ad93 81bf 3ad4 2abf
000000a0: be3e 97be a8cb 7dbf b447 59bf 105f debe
000000b0: 4749 a2be be19 bebe 966a 2cbf 0618 8abf
000000c0: 1ecb 78bf 8400 49bf ccfa c3be 0375 3fbf
000000d0: b831 89be f1d8 18bf 46fd 78be c820 d1be
000000e0: bbca 81bf e5fc 8abe 1178 f6be 1222 b5be
000000f0: 2376 81bf 76b3 bfbe b905 2ebf 97f7 83bf
00000100: 014a 58bf 3c66 ebbe 477b 1abf 1711 bcbe
00000110: c36e 36bf ef7a dcbe fa37 05bf 5af3 a3be
00000120: 9841 91be bed2 24bf b5b7 08bf 368c b5be
00000130: f5b1 b8be 04f9 7cbf 1bcd bcbe 06ad 81be
00000140: 68b2 ecbe b97e a0bf f278 15bf 1a0d 4fbf
00000150: f225 a5be a7cc d0be 9c64 50bf e628 bcbe
00000160: 2067 91be 6908 eebe 1ca2 40bf 170b f6be
00000170: 1b36 3bbf 7e5f 27bf 5c0c 37bf e933 f6be
00000180: f6e8 9abe 3374 3dbf c6aa d3be 3c18 6dbf
00000190: b671 b3be 7df1 37bf 21de 29bf a2e4 e1be
000001a0: 7cd3 edbe 9708 5ebf fb76 31bf f59d aebe
000001b0: c42d a0be cdd4 bdbe bff6 2cbf 754d 43bf
000001c0: bbe8 67bf cb78 1ebf bc2d e2be 06c3 5abf
000001d0: 2231 d6be 96c5 3cbf 0e0c 9bbe 3cc4 eabe
000001e0: 2745 75bf 62ec 81be 2a3c 07bf 54da d2be
000001f0: b54d 5fbf 7194 b4be 450a 26bf aa2e 22bf
00000200: 92fa 89bf 96ec adbe c446 a3be 2ee4 42be
00000210: 5c67 7bbf 5919 b8be f638 0bbf df56 a3be
00000220: d39c 6dbe 122b 50bf 6c71 a8be 7440 9fbe
00000230: 7a3e 00bf 6fda 94bf 8ebd c1be c247 92be
00000240: 81c2 9fbe cce1 96bf 7f55 1dbf 3a1b 74bf
00000250: 2468 b0be 2c3b 8fbe 46d5 91bf 7528 89be
00000260: 1d3c 97be 5267 8dbe b3ca 25bf b2eb f3be
00000270: 110f 32bf 8895 2bbf 4d70 1bbf 7261 f0be
00000280: 461e d3be 4239 7ebf dd9d c8be 5366 77bf
00000290: 02f2 dabe d363 82bf b75e 7cbf d409 23bf
000002a0: b32f c8be 29b5 63bf a17f 63bf e89c c3be
000002b0: 770c 72be 8ccf b2be d79c 42bf 0f23 95bf
000002c0: 36ec 53bf ee36 2fbf 6f0c b2be d42a 39bf
000002d0: c337 a9be 2ef2 0bbf e262 59be 6c2e 9cbe
000002e0: a5f6 85bf 6ed5 a5be ec6c c6be 4d5f 05bf
000002f0: f1f8 83bf 76eb a6be c208 01bf 43c6 88bf
00000300: 8b72 89bf c98d d5be 8084 b1be 9f22 9bbe
00000310: aea8 7ebf 80f9 9abe 734f 1dbf bbab a2be
00000320: 694f bebd 02dd 5dbf 63f4 7dbe 20b4 cfbe
00000330: 3378 b1be 9510 9fbf ebf4 edbe 01fd 9fbe
00000340: a5f9 d0be b5de 9cbf 1080 2abf 924b 61bf
00000350: 8d81 bcbe 46a0 ebbe 1548 88bf 495f 43be
00000360: 8d87 ddbe 5726 d5be 620c 44bf 2b26 d6be
00000370: f595 32bf d559 40bf d9fc d7be 47e0 bfbe
00000380: 6042 47be 7764 66bf dd29 74be 2f42 7bbf
00000390: e234 edbe 364f 72bf 95a8 6bbf 5785 27bf
000003a0: 6c98 d4be 57e5 86bf 46f9 3abf 51c3 d0be
000003b0: 377e 7dbe fd18 aabe babd 58bf 88e9 91bf
000003c0: 3b6b 57bf cdbc 3abf 100c b0be c325 66bf
000003d0: 6c7a 97be 91fc 27bf fd66 16be c51c bdbe
000003e0: b76e 94bf 8684 5bbe b082 9abe 23a6 f3be
000003f0: 077e 94bf b5fe 97be 3492 13bf beff 8abf

fc2.bias f4 [128]
-0.74598914 -0.7017017 -0.81444144 -0.63915765 0.52035296 -0.734196 -0.6794862 0.4050752
0.45129704 0.41988388 0.4431464 0.33848876 -0.6949115 -0.73606074 -0.74342847 -0.8175194
-0.56959265 -0.055743597 -0.19849959 -0.760444 0.44885057 -0.64642984 -0.73499006 0.36626944
-0.60045594 -0.7462196 -0.905187 -0.8601333 -0.6577484 -0.553736 0.040890727 0.54216516
-0.53938013 -0.83712584 0.3765136 -0.7794748 -0.23061424 -0.64974517 -0.64522105 0.4214667
0.35573488 0.43510067 -0.69415724 0.4465943 -0.8903377 -0.6611285 -0.57977766 -0.71691024
-0.09536397 -0.65334177 -0.7839473 -0.5448358 -0.7589664 -0.7041419 -0.15339112 -0.539327
-0.8332047 -0.66603374 -0.8036779 0.35998508 -0.6123627 0.3953289 -0.72206527 0.58695024
-0.73306006 -0.7894673 -0.57129633 -0.8045689 -0.6438253 0.28699633 0.0028639063 -0.5523692
0.4839684 -0.8251994 -0.115769885 -0.7101949 -0.9234817 -0.07911403 -0.75907016 -0.76861256
-0.7517529 0.098870836 0.53461885 -0.66066015 0.5076643 0.54902214 0.5888358 -0.77359474
-0.5889977 -0.7692516 -0.8746383 -0.62707466 -0.6409564 -0.77958816 0.4815142 0.46256793
-0.6724875 -0.7636737 -0.48229802 -0.11383759 -0.8465309 0.4638837 -0.095531814 0.31553224
-0.5819303 -0.69655746 -0.6007513 0.3899101 -0.17347941 -0.73668694 0.37589812 -0.5612451
0.49079743 -0.21745794 -0.6189589 -0.6114325 0.23153391 -0.7683513 -0.7070334 -0.63446003
-0.539364 -0.05862334 -0.48835835 -0.67521405 -0.66975695 -0.57394177 -0.04478573 -0.63109416
00000000: 25f9 3ebf b9a2 33bf 3c7f 50bf d69f 23bf
00000010: da35 053f 45f4 3bbf cff2 2dbf 0466 cf3e
00000020: 6810 e73e 05fb d63e 16e4 e23e 664e ad3e
00000030: b8e5 31bf 7a6e 3cbf 5451 3ebf f448 51bf
00000040: d3d0 11bf 6653 64bd 7a43 4bbe 75ac 42bf
00000050: becf e53e 6d7c 25bf 4f28 3cbf ab87 bb3e
00000060: 7bb7 19bf 3f08 3fbf 56ba 67bf b231 5cbf
00000070: 3362 28bf a4c1 0dbf 097d 273d 56cb 0a3f
00000080: d114 0abf e14d 56bf 64c6 c03e a98b 47bf
00000090: 2426 6cbe b355 26bf 352d 25bf 7cca d73e
000000a0: e222 b63e 84c5 de3e 4ab4 31bf 02a8 e43e
000000b0: 2ced 63bf b83f 29bf 4f6c 14bf 6e87 37bf
000000c0: 2f4e c3bd 6841 27bf c5b0 48bf 5c7a 0bbf
000000d0: 9f4b 42bf a542 34bf 9012 1dbe 5611 0abf
000000e0: e74c 55bf 3081 2abf d6bd 4dbf f74f b83e
000000f0: cdc3 1cbf 8d68 ca3e 45d9 38bf 5f42 163f
00000100: d3a9 3bbf 871a 4abf 7a40 12bf 3af8 4dbf
00000110: bcd1 24bf 2ff1 923e 60b0 3b3b 1168 0dbf
00000120: b5ca f73e 4540 53bf c318 edbd 55cf 35bf
00000130: 4c69 6cbf 8906 a2bd 6c52 42bf cbc3 44bf
00000140: e172 40bf cb7c ca3d c8dc 083f 0621 29bf
00000150: 4af6 013f b78c 0c3f f1bd 163f 4e0a 46bf
00000160: 8ec8 16bf aced 44bf 4ce8 5fbf f787 20bf
00000170: b815 24bf 1793 47bf 0789 f63e b4d5 ec3e
00000180: 2428 2cbf 1f80 43bf c4ef f6be af23 e9bd
00000190: 40b6 58bf 2a82 ed3e 2fa6 c3bd 718d a13e
000001a0: 62f9 14bf 9751 32bf d6ca 19bf 4ca2 c73e
000001b0: 96a4 31be 8497 3cbf b875 c03e c2ad 0fbf
000001c0: cd49 fb3e 4bad 5ebe 1774 1ebf d786 1cbf
000001d0: 3a17 6d3e acb2 44bf 2400 35bf f96b 22bf
000001e0: c213 0abf 071f 70bd 1b0a fabe d4da 2cbf
000001f0: 3175 2bbf d9ed 12bf 3e71 37bd 638f 21bf

fc3.weight f4 [128, 128]
-0.31849954 -0.39502126 -0.287868 -0.2803105 -1.0966389 -0.23263486 -0.29906505 -1.0594974
-1.1295521 -0.91480386 -1.1554267 -0.5576182 -0.1742624 -0.3385517 -0.31972313 -0.2536069
-0.327642 -0.28992197 -0.2243221 -0.28740898 -0.62308186 -0.3011702 -0.37603492 -0.9915778
-0.26106834 -0.48774296 -0.5340987 -0.45989046 -0.3952018 -0.33119205 -0.6333474 -0.3580002
-0.46604747 -0.327403 -0.64076984 -0.17560218 -0.579883 -0.28134575 -0.29356363 -0.6532141
-0.40528232 -0.5215797 -0.38893083 -0.6354873 -0.27448758 -0.30949774 -0.3656642 -0.18619916
-0.3258491 -0.3337278 -0.35284826 -0.2922653 -0.37532017 -0.31073728 -0.27463078 -0.5486658
-0.15420125 -0.11469738 -0.37327006 -0.5919513 -0.29935548 -0.47749102 -0.2654539 -0.38136387
-0.16754897 -0.43825227 -0.25860503 -0.22170793 -0.25638875 -0.64476496 -0.3024611 -0.39383608
-0.61525846 -0.44695938 -0.3420362 -0.19205964 -0.36368072 -0.4076187 -0.39001235 -0.3178316
-0.40326065 -0.43402392 -0.87075984 -0.46310234 -0.42611253 -1.1047943 -0.93699557 -0.40578365
-0.41272548 -0.57782626 -0.27116528 -0.26961645 -0.33414736 -0.33704978 -0.9137667 -0.6741029
-0.36715332 -0.44392344 -0.17780519 -0.28020495 -0.43857267 -0.4765054 -0.62109715 -0.6788135
-0.31561962 -0.3968633 -0.36056483 -0.6798785 -0.27956828 -0.33852768 -0.9687158 -0.3565482
-0.5717685 -0.20887576 -0.24404894 -0.38262364 -0.43986136 -0.28227866 -0.38171026 -0.37279135
-0.60623395 -0.32040963 -0.569525 -0.36811876 -0.32760078 -0.24864128 -0.26230833 -0.25984755
-0.52131456 -0.4546542 -0.41719934 -0.4432218 -0.6539917 -0.461194 -0.32380038 -0.58243454
-0.6232046 -0.6909184 -0.6912296 -0.73488134 -0.28210676 -0.3546302 -0.3985059 -0.38322794
-0.33302835 -0.35718027 -0.42860746 -0.2385608 -0.79284567 -0.42287242 -0.33481443 -0.6835396
-0.43598175 -0.5536677 -0.71449554 -0.53513575 -0.42988786 -0.44164503 -0.7475757 -0.7057466
-0.70098156 -0.27604458 -0.6086302 -0.35633162 -0.8148523 -0.31422776 -0.2776722 -0.66657287
-0.53854847 -0.58156824 -0.30344716 -0.66854435 -0.44465694 -0.4069 -0.2827203 -0.3467045
-0.42947984 -0.4599395 -0.50687355 -0.39052853 -0.40468043 -0.4100308 -0.32364577 -0.6951744
-0.4136474 -0.280744 -0.41172937 -0.5197291 -0.36479932 -0.49932778 -0.35718766 -0.61498487
-0.35465446 -0.3501962 -0.41514915 -0.43440562 -0.3540503 -0.6589163 -0.42111355 -0.37290078
-0.75341415 -0.5551619 -0.49306828 -0.39419937 -0.43994775 -0.5380957 -0.5515021 -0.46847486
-0.5759921 -0.41903573 -0.6708602 -0.45854846 -0.61888355 -0.69274074 -0.6559121 -0.44452536
-0.31052077 -0.65516293 -0.35358357 -0.41033176 -0.37505373 -0.47277796 -0.49143472 -0.74590635
-0.42108783 -0.6657874 -0.33124575 -0.3764153 -0.5296807 -0.5544698 -0.8292269 -0.6396479
-0.42996737 -0.40806216 -0.37198523 -0.62583095 -0.31493193 -0.40410775 -0.69688827 -0.28651625
-0.43767315 -0.3546249 -0.3194178 -0.49132544 -0.6406234 -0.35622874 -0.44945392 -0.35310444
-0.81184196 -0.44096383 -0.8502929 -0.36578566 -0.36763576 -0.44684905 -0.4096774 -0.3060608
00000000: 5f12 a3be 3a40 cabe 6f63 93be dc84 8fbe
00000010: aa5e 8cbf d537 6ebe 0e1f 99be 9c9d 87bf
00000020: 2a95 90bf 9630 6abf 06e5 93bf 11c0 0ebf
00000030: d871 32be a656 adbe c0b2 a3be c3d8 81be
00000040: b1c0 a7be a770 94be b1b4 65be 4527 93be
00000050: 4b82 1fbf fb32 9abe a687 c0be 0bd8 7dbf
00000060: c0aa 85be 72b9 f9be b1ba 08bf c376 ebbe
00000070: e457 cabe 0192 a9be 0e23 22bf cd4b b7be
00000080: c69d eebe 5ea1 a7be 7e09 24bf 0fd1 33be
00000090: 3673 14bf 8d0c 90be f94d 96be 0a39 27bf
000000a0: 2a81 cfbe 3f86 05bf f121 c7be 4caf 22bf
000000b0: a389 8cbe 7d76 9ebe 5738 bbbe feaa 3ebe
000000c0: b1d5 a6be 5fde aabe 87a8 b4be cca3 95be
000000d0: f729 c0be f518 9fbe 689c 8cbe 5d75 0cbf
000000e0: efe6 1dbe 76e6 eabd 411d bfbe 1f8a 17bf
000000f0: 1f45 99be b479 f4be 93e9 87be 2042 c3be
00000100: f591 2bbe 9a62 e0be e167 84be 6707 63be
00000110: 6345 83be 510f 25bf 2edc 9abe e2a4 c9be
00000120: 9481 1dbf dcd7 e4be 5e1f afbe 48ab 44be
00000130: 5c34 babe 66b3 d0be b3af c7be d3ba a2be
00000140: 2e78 cebe 6238 debe 1eea 5ebf c01b edbe
00000150: 6c2b dabe e669 8dbf f1de 6fbf e0c2 cfbe
00000160: c150 d3be 6cec 13bf 2dd6 8abe 2b0b 8abe
00000170: 5d15 abbe ca91 acbe 9dec 69bf 0292 2cbf
00000180: 85fb bbbe ef49 e3be 9012 36be 0677 8fbe
00000190: 998c e0be 84f8 f3be 3900 1fbf b9c6 2dbf
000001a0: e598 a1be ab31 cbbe f49b b8be 840c 2ebf
000001b0: 9323 8fbe 8053 adbe c2fd 77bf 7c8d b6be
000001c0: 6c5f 12bf 87e3 55be f7e7 79be 3fe7 c3be
000001d0: 8235 e1be d486 90be 876f c3be 82de bebe
000001e0: 2632 1bbf bb0c a4be 64cc 11bf 107a bcbe
000001f0: 4abb a7be d29b 7ebe 474d 86be bd0a 85be
00000200: df74 05bf 6fc8 e8be 279b d5be f8ed e2be
00000210: 006c 27bf 9f21 ecbe 2ac9 a5be 6e1a 15bf
00000220: 568a 1fbf 07e0 30bf 6cf4 30bf 2f21 3cbf
00000230: 4c70 90be 1792 b5be f708 ccbe 7436 c4be
00000240: b182 aabe 55e0 b6be 7072 dbbe 4849 74be
00000250: eff7 4abf bc82 d8be cc6c abbe 74fc 2ebf
00000260: 0039 dfbe 2bbd 0dbf 2ee9 36bf a8fe 08bf
00000270: 431a dcbe 4c1f e2be 1f61 3fbf cfab 34bf
00000280: 8773 33bf b755 8dbe 30cf 1bbf 1971 b6be
00000290: 299a 50bf 76e2 a0be 0d2b 8ebe 85a4 2abf
000002a0: 50de 09bf a8e1 14bf 6d5d 9bbe b925 2bbf
000002b0: 13aa e3be 3255 d0be b7c0 90be 4183 b1be
000002c0: c8e4 dbbe 317d ebbe 77c2 01bf 5bf3 c7be
000002d0: 4632 cfbe 8fef d1be e6b4 a5be f3f6 31bf
000002e0: 98c9 d3be adbd 8fbe 31ce d2be f70c 05bf
000002f0: fac6 babe e4a7 ffbe 4de1 b6be a66f 1dbf
00000300: 4595 b5be eb4c b3be 6e8e d4be 6a6a debe
00000310: 1546 b5be bdae 28bf 329c d7be daec bebe
00000320: c0df 40bf 171f 0ebf 7273 fcbe 80d4 c9be
00000330: d540 e1be a4c0 09bf 3e2f 0dbf f0db efbe
00000340: 3874 13bf da8b d6be 7ebd 2bbf ddc6 eabe
00000350: 276f 1ebf 7557 31bf dbe9 27bf d498 e3be
00000360: 94fc 9ebe c2b8 27bf e808 b5be 0117 d2be
00000370: 0b07 c0be f40f f2be 559d fbbe b8f3 3ebf
00000380: d398 d7be 0b71 2abf 0b99 a9be 82b9 c0be
00000390: 2899 07bf bcf1 0dbf 3748 54bf f7bf 23bf
000003a0: af24 dcbe 86ed d0be d974 bebe 7536 20bf
000003b0: c23e a1be 36e7 cebe 4567 32bf 42b2 92be
000003c0: b216 e0be 6591 b5be bb8a a3be 028f fbbe
000003d0: e5ff 23bf 9d63 b6be d31e e6be 1bca b4be
000003e0: e0d4 4fbf 03c6 e1be ccac 59bf 4248 bbbe
000003f0: c13a bcbe 66c9 e4be 3cc1 d1be 00b4 9cbe

fc3.bias f4 [128]
-0.73667103 -0.7841539 -0.9174416 0.51384586 0.4100983 -0.84879917 -0.85905874 -0.91444516
-0.70976543 -0.9411105 -0.80552554 -0.9063334 -0.7622043 -0.70238036 -0.9371215 -0.83451384
-0.10353379 -0.77517414 0.07035014 -0.8324963 -0.6619356 -0.45589894 -0.87895495 -0.9613772
-0.75819665 -0.8088988 -0.866974 -0.88001674 -0.9307239 -0.89823395 -0.8746923 0.17332232
0.45220017 -0.90638864 -0.105623774 -0.36076573 0.29221502 0.50838137 -0.7938249 0.3134684
0.42121157 0.39657903 -0.810755 -0.8484382 -0.830927 -0.9058662 -0.8256395 0.366055
-0.77479386 0.266991 -0.83794636 -0.51835084 0.37871462 -0.90422994 -0.5133709 -0.8641045
-0.7835404 0.21310727 0.43217608 -0.7610668 0.29645333 0.232162 0.43786642 -0.77533156
0.3994203 -0.80184495 -0.71204764 -0.79162645 -0.7894089 -0.8238684 -0.8315349 -1.0151544
-0.9229033 -0.8987726 -0.8335828 0.44464082 -0.8237271 -0.93573534 -0.18304956 0.44811124
-0.641154 -0.8416796 -0.8642418 0.12146642 -0.8209822 -0.7366933 -0.86219 -0.9219118
-0.6044743 0.15887687 -0.81010324 -0.86313033 -0.82591426 -0.86717457 -0.7395313 -0.8168046
0.28608066 0.28816444 0.4740086 -0.9521899 -0.71170866 -0.80311066 -0.8823742 -0.57199264
-0.73835194 -0.80970097 -0.82449514 -0.77804 -0.6689358 -0.8591868 -0.5433475 -0.8873727
-0.7212479 -0.8369303 -0.7864936 -0.83444387 -0.8231293 0.18210584 -0.8688003 -0.81854415
-0.86122805 -0.9080843 -0.8582176 -0.64269584 -0.7901622 -0.8873816 -0.80810934 -0.8704837
00000000: 7996 3cbf 4fbe 48bf 74dd 6abf 678b 033f
00000010: 68f8 d13e e74a 59bf 46eb 5bbf 1419 6abf
00000020: 30b3 35bf 9eec 70bf ec36 4ebf 7705 68bf
00000030: d21f 43bf 33cf 33bf 32e7 6fbf b3a2 55bf
00000040: 8609 d4bd d071 46bf bc13 903d 7a1e 55bf
00000050: 9d74 29bf 966b e9be 3103 61bf d11c 76bf
00000060: 2d19 42bf fe13 4fbf 02f2 5dbf c748 61bf
00000070: ec43 6ebf a9f2 65bf d6eb 5fbf 687b 313e
00000080: c886 e73e 1609 68bf 4751 d8bd 49b6 b8be
00000090: 359d 953e 4825 023f 1c38 4bbf ee7e a03e
000000a0: 0ba9 d73e 680c cb3e a48d 4fbf 3f33 59bf
000000b0: a2b7 54bf d9e6 67bf 1c5d 53bf 906b bb3e
000000c0: e458 46bf 0bb3 883e a783 56bf a4b2 04bf
000000d0: e2e6 c13e 9d7b 67bf 466c 03bf f435 5dbf
000000e0: 1b96 48bf cb38 5a3e 2f46 dd3e 46d5 42bf
000000f0: bbc8 973e e0bb 6d3e 0730 e03e 217c 46bf
00000100: d180 cc3e b645 4dbf c148 36bf 08a8 4abf
00000110: b416 4abf 0ae9 52bf 79df 54bf 94f0 81bf
00000120: 6443 6cbf f615 66bf af65 55bf f6a7 e33e
00000130: c7df 52bf 5a8c 6fbf 5871 3bbe d66e e53e
00000140: ab22 24bf 5078 57bf f33e 5dbf 63c3 f83d
00000150: e42b 52bf ef97 3cbf 7cb8 5cbf 6902 6cbf
00000160: d4be 1abf 9eb0 223e ed62 4fbf 1cf6 5cbf
00000170: 1e6f 53bf 27ff 5dbf ec51 3dbf 1b1a 51bf
00000180: 2a79 923e 4a8a 933e 41b1 f23e b8c2 73bf
00000190: 8a32 36bf a998 4dbf 47e3 61bf 1c6e 12bf
000001a0: a204 3dbf 9048 4fbf 1d12 53bf a12d 47bf
000001b0: 603f 2bbf abf3 5bbf d218 0bbf db2a 63bf
000001c0: b4a3 38bf 1041 56bf a557 49bf 1d9e 55bf
000001d0: 9ab8 52bf f479 3a3e b269 5ebf 1c8c 51bf
000001e0: 7179 5cbf 3678 68bf 26b4 5bbf b787 24bf
000001f0: 1248 4abf 712b 63bf 41e0 4ebf 05d8 5ebf

fc4.weight f4 [1, 128]
0.17689686 0.16089375 0.1503555 0.13069467 0.13432576 0.16529931 0.1652349 0.15585953
0.17395212 0.024573656 0.16346747 0.16625546 -0.026228169 0.14405853 0.1645087 0.15663773
0.08449052 0.16758122 0.09993184 -0.032438118 0.15098295 0.060611382 0.1567995 0.16321376
0.1676976 0.16187672 0.16671544 0.15343902 0.16933076 0.15225486 0.16748007 0.097465314
0.12206183 0.14213106 0.071790025 0.054087505 0.11476289 0.12404958 0.15426461 0.11955978
0.124621816 0.12131579 0.15580511 -0.021001143 0.15649329 0.15955797 0.17261957 0.13062714
0.05680365 0.115984544 0.16229361 -0.020289738 0.119861424 0.15393327 0.07919824 0.15776096
0.162997 0.11151444 0.12580897 0.023546206 0.119087994 0.10522407 0.11613687 0.102272026
0.1370799 0.14696342 0.03292432 0.14382961 0.15228976 0.16164833 0.16189852 -0.03153378
0.17100371 0.1642638 0.15256412 0.114009246 0.15562493 0.16116315 0.053806014 0.123184726
0.113067694 0.15431634 0.15141815 0.10154406 0.14106041 0.17249599 0.16711491 0.010994681
0.12413261 0.10244743 0.15549083 0.15323803 0.14727764 0.14543124 0.16197489 0.16152723
0.11142667 0.10288629 0.12062038 0.15484998 0.16186179 0.17216708 0.15609653 0.14354646
0.1375564 0.15765117 0.15598357 0.17029232 0.14443776 0.1554268 0.023883177 -0.003721735
0.17899814 0.16182987 0.14196855 0.15648371 0.17401762 0.09845191 0.15721206 0.16539134
0.15787402 0.16664846 0.1587714 0.1455932 0.1526442 0.16579969 0.15959646 0.16364601
00000000: 7324 353e 55c1 243e cbf6 193e d3d4 053e
00000010: b18c 093e 3944 293e 5633 293e a499 1f3e
00000020: 8120 323e b14e c93c 0464 273e df3e 2a3e
00000030: 75dc d6bc 1484 133e f874 283e a465 203e
00000040: 5e09 ad3d 699a 2b3e 11a9 cc3d d5dd 04bd
00000050: 469b 1a3e a443 783d 0c90 203e 8221 273e
00000060: ebb8 2b3e 03c3 253e 74b7 2a3e 1e1f 1d3e
00000070: 0b65 2d3e b3e8 1b3e e57f 2b3e e59b c73d
00000080: 8dfb f93d ce8a 113e a606 933d dc8a 5d3d
00000090: ce08 eb3d b50d fe3d 8bf7 1d3e c2db f43d
000000a0: b939 ff3d 6a74 f83d 608b 1f3e 970a acbc
000000b0: c73f 203e 2a63 233e 2fc3 303e 1fc3 053e
000000c0: f2aa 683d 4e89 ed3d 4c30 263e aa36 a6bc
000000d0: e879 f53d afa0 1d3e b032 a23d 178c 213e
000000e0: b0e8 263e af61 e43d 11d4 003e f9e3 c03c
000000f0: 68e4 f33d b87f d73d 2bd9 ed3d ff73 d13d
00000100: ac5e 0c3e 947d 163e a7db 063d 1248 133e
00000110: d9f1 1b3e 2487 253e bac8 253e 9129 01bd
00000120: 991b 2f3e c534 283e c539 1c3e ae7d e93d
00000130: 245c 1f3e f407 253e b263 5c3d 4648 fc3d
00000140: 0990 e73d 1a05 1e3e 5c0d 1b3e 55f6 cf3d
00000150: 2472 103e caa2 303e 2c20 2b3e 0923 343c
00000160: 3d39 fe3d f5cf d13d fd38 1f3e 6eea 1c3e
00000170: f3cf 163e edeb 143e bfdc 253e 6567 253e
00000180: aa33 e43d 0cb6 d23d d107 f73d fe90 1e3e
00000190: 19bf 253e 914c 303e c5d7 1f3e d8fd 123e
000001a0: 96db 0c3e 4f6f 213e 28ba 1f3e 1c61 2e3e
000001b0: 7ee7 133e 3428 1f3e a7a6 c33c 5ae8 73bb
000001c0: 4a4b 373e bbb6 253e 3460 113e 443d 203e
000001d0: ad31 323e 28a1 c93d 33fc 203e 595c 293e
000001e0: baa9 213e e5a5 2a3e f894 223e 6216 153e
000001f0: c34e 1c3e 65c7 293e 416d 233e d292 273e
